smart_glasses_server/document_classifier_model_int8.tflite (tflite, 127424 bytes, 11 tensors)

tfl.pseudo_qconst1 i1 [6, 128]
-13 4 8 -9 -101 -35 -88 74
92 21 -124 18 -95 -50 -29 72
-56 21 -16 -94 -110 -97 56 28
-78 104 79 91 61 -65 0 38
-103 88 35 -120 19 -90 70 28
-30 -101 -117 38 -39 83 98 -55
-32 -35 -81 -62 52 78 -44 -44
5 -127 32 106 63 -59 -13 25
-7 -18 -92 -113 -26 19 -57 -85
-100 -90 58 2 -51 -24 -114 -24
-65 -101 -85 62 56 -91 85 -1
96 62 -85 -27 34 109 84 -33
-9 -101 89 -6 65 14 -55 15
24 -41 -27 -12 -43 -35 -39 -12
-105 -111 52 37 -64 26 10 23
-33 64 -66 93 -103 85 -126 17
97 94 -47 48 15 94 -72 -47
-12 -53 73 -62 -104 -103 -106 -123
-82 22 -104 -73 -58 -37 86 -25
12 -87 -55 -13 84 -60 20 12
48 -93 79 26 108 -23 127 23
33 -84 92 -33 91 -49 -60 -76
-101 20 -49 -17 19 116 -107 121
72 19 -60 63 59 44 31 -90
-18 -60 -107 -13 86 53 82 113
-101 -102 -26 -14 -59 -49 -51 21
-59 73 -42 24 92 107 14 -68
-93 -17 70 -13 96 80 -116 -1
9 116 -100 22 28 -64 -9 -85
-92 -117 -4 -111 8 -9 -17 -91
-106 -6 -75 110 -108 18 107 -47
-78 10 -90 79 74 42 82 -86
00000000: f304 08f7 9bdd a84a 5c15 8412 a1ce e348
00000010: c815 f0a2 929f 381c b268 4f5b 3dbf 0026
00000020: 9958 2388 13a6 461c e29b 8b26 d953 62c9
00000030: e0dd afc2 344e d4d4 0581 206a 3fc5 f319
00000040: f9ee a48f e613 c7ab 9ca6 3a02 cde8 8ee8
00000050: bf9b ab3e 38a5 55ff 603e abe5 226d 54df
00000060: f79b 59fa 410e c90f 18d7 e5f4 d5dd d9f4
00000070: 9791 3425 c01a 0a17 df40 be5d 9955 8211
00000080: 615e d130 0f5e b8d1 f4cb 49c2 9899 9685
00000090: ae16 98b7 c6db 56e7 0ca9 c9f3 54c4 140c
000000a0: 30a3 4f1a 6ce9 7f17 21ac 5cdf 5bcf c4b4
000000b0: 9b14 cfef 1374 9579 4813 c43f 3b2c 1fa6
000000c0: eec4 95f3 5635 5271 9b9a e6f2 c5cf cd15
000000d0: c549 d618 5c6b 0ebc a3ef 46f3 6050 8cff
000000e0: 0974 9c16 1cc0 f7ab a48b fc91 08f7 efa5
000000f0: 96fa b56e 9412 6bd1 b20a a64f 4a2a 52aa

tfl.pseudo_qconst3 i1 [128, 128]
75 112 85 85 -91 -54 -13 62
25 61 125 9 50 103 80 96
-94 -96 -14 19 105 20 -91 20
34 -7 47 53 -96 -1 -48 63
65 -95 -41 -88 12 23 80 20
-97 -68 -3 -121 -59 31 -63 -77
40 27 -37 17 -85 57 100 86
-81 -89 32 -67 93 -28 114 27
25 122 55 97 -31 72 -85 -50
96 -50 -30 75 -83 -80 -60 52
98 -19 50 -32 -90 -56 24 123
70 60 31 32 106 -5 -85 -20
15 43 66 61 -68 -64 -4 -106
96 40 81 -106 -38 -85 -62 -99
-52 9 99 -127 103 75 22 92
118 112 -58 -94 19 97 56 -35
62 52 -75 -13 36 65 -36 -112
66 -60 54 16 -43 35 -89 -23
81 -76 -68 110 -55 -91 -71 72
10 38 -57 -82 66 -91 -53 -115
30 -111 -31 51 -122 74 -52 14
-90 -9 35 24 54 106 -33 19
33 -103 71 76 43 123 24 15
19 -26 -53 -36 -86 -80 84 85
-52 88 98 -55 -95 -99 109 -47
127 -30 -43 -39 -9 26 -44 -81
-57 8 81 55 -45 -42 33 0
-16 -101 -35 -116 74 39 -57 19
8 13 123 -87 -95 -111 117 -68
-80 -44 -43 -12 -90 -38 -82 -78
-10 -89 -78 18 -3 -18 16 -44
-68 101 -8 -74 39 115 -81 82
00000000: 4b70 5555 a5ca f33e 193d 7d09 3267 5060
00000010: a2a0 f213 6914 a514 22f9 2f35 a0ff d03f
00000020: 41a1 d7a8 0c17 5014 9fbc fd87 c51f c1b3
00000030: 281b db11 ab39 6456 afa7 20bd 5de4 721b
00000040: 197a 3761 e148 abce 60ce e24b adb0 c434
00000050: 62ed 32e0 a6c8 187b 463c 1f20 6afb abec
00000060: 0f2b 423d bcc0 fc96 6028 5196 daab c29d
00000070: cc09 6381 674b 165c 7670 c6a2 1361 38dd
00000080: 3e34 b5f3 2441 dc90 42c4 3610 d523 a7e9
00000090: 51b4 bc6e c9a5 b948 0a26 c7ae 42a5 cb8d
000000a0: 1e91 e133 864a cc0e a6f7 2318 366a df13
000000b0: 2199 474c 2b7b 180f 13e6 cbdc aab0 5455
000000c0: cc58 62c9 a19d 6dd1 7fe2 d5d9 f71a d4af
000000d0: c708 5137 d3d6 2100 f09b dd8c 4a27 c713
000000e0: 080d 7ba9 a191 75bc b0d4 d5f4 a6da aeb2
000000f0: f6a7 b212 fdee 10d4 bc65 f8b6 2773 af52

tfl.pseudo_qconst4 i1 [128] scale=0.004297941 zero_point=127
-0.5888179 -0.3567291 -0.61460555 -0.47277352 -0.41690028 -1.0959749 -0.70916027 -0.2535785
-0.7435438 -0.22349294 -0.73064995 -0.803715 -0.25787646 -0.6317973 -0.19770528 -0.3782188
-0.39111263 -0.36962292 -0.9412491 -0.49856114 -0.43409204 -0.7951191 -0.507157 -0.88967377
-0.4512838 -0.5759241 -0.3567291 -0.6360953 -0.36102703 -0.6489891 -0.64469117 -0.47277352
-0.3481332 -0.7650335 -0.3782188 -0.62320143 -0.5243488 -0.5673282 -0.77362937 -0.32664353
-0.42119822 -0.9197594 -0.6919685 -0.36532497 -0.5157529 -0.5673282 -0.76933146 -0.48136938
-0.36102703 -0.7349479 -0.45558175 -0.3997085 -0.32234558 -0.38681468 -0.38681468 -0.3567291
-0.48136938 -0.5759241 -0.48136938 -0.35243115 -0.9283553 -0.3438353 -0.580222 -0.56303024
-0.8080129 -1.0744853 -0.35243115 -0.42119822 -0.3997085 -0.35243115 -0.60171175 -0.43839
-0.8638861 -0.27077028 -0.61460555 -0.8638861 -0.43409204 -0.6317973 -0.40400645 -0.5157529
-0.4512838 -0.36962292 -0.799417 -0.72635204 -0.872482 -0.8681841 -0.56303024 -0.7564376
-0.21489705 -0.66618085 -0.3438353 -0.44268793 -0.8166088 -0.7349479 -0.30945176 -0.66188294
-0.3352394 -0.5243488 -0.2535785 -0.30515382 -0.9240573 -0.67477673 -0.3137497 -0.84239644
-0.9971223 -0.56303024 -0.5157529 -0.77362937 -0.78222525 -0.30515382 -0.95844084 -0.38251674
-0.9283553 -0.47277352 -0.5673282 -0.4083044 -0.43839 -0.48566732 -0.5200509 -0.8080129
-0.43409204 -0.3137497 -0.511455 -0.54154056 -0.5716261 -0.3567291 -0.44698587 -0.84669435
00000000: f62c f011 1e80 da44 d24b d5c4 43ec 5127
00000010: 2429 a40b 1ac6 09b0 16f9 2ceb 2be8 e911
00000020: 2ecd 27ee 05fb cb33 1da9 de2a 07fb cc0f
00000030: 2bd4 1522 3425 252c 0ff9 0f2d a72f f8fc
00000040: c385 2d1d 222d f319 b640 f0b6 1aec 2107
00000050: 1629 c5d6 b4b5 fccf 4de4 2f18 c1d4 37e5
00000060: 3105 4438 a8e2 36bb 97fc 07cb c938 a026
00000070: a711 fb20 190e 06c3 1a36 0801 fa2c 17ba

tfl.pseudo_qconst5 i1 [128] scale=0.07776196 zero_point=-128
9.098149 16.485537 4.6657176 10.575627 5.6766233 13.608343 11.8198185 19.362728
13.45282 17.107632 17.729727 13.45282 19.207205 11.586533 17.340918 11.664294
13.919392 7.6984344 12.752962 12.28639 8.864863 14.930297 9.642484 14.152678
9.87577 5.3655753 11.431008 10.420103 8.553816 7.853958 11.975343 6.298719
13.997153 10.497865 8.087244 14.308201 9.331435 14.619249 16.174488 6.298719
10.964437 12.830724 17.574203 8.553816 8.864863 9.253674 14.852535 9.642484
15.241344 14.541487 12.208629 10.731151 11.664294 15.941202 6.9985766 7.853958
14.774773 11.975343 6.376481 8.6315775 14.385963 16.952108 16.718822 17.41868
14.074915 11.586533 5.9876714 7.620672 11.042199 15.941202 16.174488 11.431008
16.563297 19.8293 17.49644 14.385963 10.886675 18.196299 5.598861 9.020388
13.919392 8.087244 12.986248 16.330011 14.619249 16.485537 9.87577 13.763867
11.353247 8.242768 17.80749 10.342341 11.664294 11.975343 18.58511 4.6657176
14.074915 13.763867 16.407774 15.085821 9.486959 9.098149 19.673777 14.308201
12.053104 8.70934 8.165006 13.297296 6.532005 11.431008 15.319107 16.952108
12.752962 9.953531 7.620672 13.763867 13.686106 8.242768 9.564721 12.752962
11.742057 18.351824 8.009482 4.510194 12.752962 14.774773 7.3873863 13.841629
00000000: f554 bc08 c92f 1879 2d5c 642d 7715 5f16
00000010: 33e3 241e f240 fc36 ffc5 1306 eee5 1ad1
00000020: 3407 e838 f83c 50d1 0d25 62ee f2f7 3ffc
00000030: 443b 1d0a 164d dae5 3e1a d2ef 395a 5760
00000040: 3515 cde2 0e4d 5013 557f 6139 0c6a c8f4
00000050: 33e8 2752 3c54 ff31 12ea 6505 161a 6fbc
00000060: 3531 5342 faf5 7d38 1bf0 e92b d413 455a
00000070: 2400 e231 30ea fb24 176c e7ba 243e df32

tfl.pseudo_qconst7 i1 [128, 3, 3, 64]
-70 4 42 62 -102 -55 17 52
-93 2 3 -94 -32 -39 -29 32
85 -87 -1 81 26 -30 -105 -13
42 18 68 42 -59 -98 40 -65
78 30 52 -118 107 -45 -87 -27
-93 -60 -11 -32 56 -67 51 -114
7 -88 85 2 106 -29 80 -104
106 -42 66 107 -71 64 -30 -13
7 -21 -35 8 -45 80 -14 93
-92 -50 117 30 -48 47 87 69
13 -7 -111 -37 -40 24 -101 55
-104 48 -90 -64 -52 22 -33 6
4 -9 108 51 -8 53 -119 -107
-1 71 -74 93 -63 -63 76 12
93 -88 -62 93 14 102 -29 -98
-76 -79 -1 -16 -36 63 85 108
79 13 86 87 25 -84 -94 89
-60 17 -52 -66 71 31 29 61
66 -91 -100 18 -5 -20 -8 0
88 98 86 -28 117 62 96 37
52 -55 50 80 -30 -31 -18 -102
58 -78 -49 55 41 49 8 96
5 22 -88 -95 56 13 -101 -9
-84 8 78 90 107 -59 5 64
-90 -94 -59 -65 57 -95 31 79
17 -96 77 -31 45 75 -52 -105
-66 86 -107 55 5 -99 34 107
15 -42 67 -18 3 -58 -79 -83
-31 -34 -47 -87 107 14 26 -94
7 115 76 58 110 -83 49 -84
-116 94 -56 -88 33 -28 -3 -115
47 34 -79 126 -36 -9 -86 -55
00000000: ba04 2a3e 9ac9 1134 a302 03a2 e0d9 e320
00000010: 55a9 ff51 1ae2 97f3 2a12 442a c59e 28bf
00000020: 4e1e 348a 6bd3 a9e5 a3c4 f5e0 38bd 338e
00000030: 07a8 5502 6ae3 5098 6ad6 426b b940 e2f3
00000040: 07eb dd08 d350 f25d a4ce 751e d02f 5745
00000050: 0df9 91db d818 9b37 9830 a6c0 cc16 df06
00000060: 04f7 6c33 f835 8995 ff47 b65d c1c1 4c0c
00000070: 5da8 c25d 0e66 e39e b4b1 fff0 dc3f 556c
00000080: 4f0d 5657 19ac a259 c411 ccbe 471f 1d3d
00000090: 42a5 9c12 fbec f800 5862 56e4 753e 6025
000000a0: 34c9 3250 e2e1 ee9a 3ab2 cf37 2931 0860
000000b0: 0516 a8a1 380d 9bf7 ac08 4e5a 6bc5 0540
000000c0: a6a2 c5bf 39a1 1f4f 11a0 4de1 2d4b cc97
000000d0: be56 9537 059d 226b 0fd6 43ee 03c6 b1ad
000000e0: e1de d1a9 6b0e 1aa2 0773 4c3a 6ead 31ac
000000f0: 8c5e c8a8 21e4 fd8d 2f22 b17e dcf7 aac9

tfl.pseudo_qconst8 i1 [64] scale=0.0012552612 zero_point=127
-0.051465712 -0.20335232 -0.17699184 -0.21967071 -0.13180242 -0.20837337 -0.017573658 -0.15565239
-0.17573658 -0.025105225 -0.06025254 -0.1004209 -0.017573658 -0.022594701 -0.19833128 -0.18326814
-0.033892054 -0.04769993 -0.04016836 -0.07531568 -0.14686556 -0.07029463 -0.017573658 -0.017573658
-0.1782471 -0.10795247 -0.06025254 -0.02133944 -0.076570936 -0.11422877 -0.28368905 -0.036402576
-0.26988116 -0.096655115 -0.104186684 -0.07029463 -0.01882892 -0.08661303 -0.051465712 -0.06025254
-0.3200916 -0.19707602 -0.2397549 -0.058997277 -0.082847245 -0.033892054 -0.20837337 -0.17448132
-0.18703392 -0.016318396 -0.0037657837 -0.04267888 -0.11548404 -0.05021045 -0.18703392 -0.07406041
-0.24226542 -0.045189403 -0.04267888 -0.123015605 -0.14435504 -0.12552613 -0.18075761 -0.07406041
00000000: 56dd f2d0 16d9 7103 f36b 4f2f 716d e1ed
00000010: 6459 5f43 0a47 7171 f129 4f6e 4224 9d62
00000020: a832 2c47 703a 564f 80e2 c050 3d64 d9f4
00000030: ea72 7c5d 2357 ea44 be5b 5d1d 0c1b ef44

tfl.pseudo_qconst9 i1 [64] scale=0.12232574 zero_point=-128
30.581434 30.581434 30.336784 31.193064 30.336784 30.336784 30.581434 30.70376
30.214458 30.581434 30.70376 30.581434 31.193064 30.581434 30.45911 30.336784
30.70376 30.581434 30.336784 30.336784 30.948412 30.336784 30.70376 30.826086
30.45911 29.480503 30.45911 30.45911 30.45911 30.70376 30.336784 30.70376
30.45911 30.948412 30.092133 30.092133 30.948412 29.84748 30.336784 31.193064
30.45911 30.45911 30.45911 30.826086 29.969807 30.45911 30.581434 30.581434
30.336784 30.70376 30.826086 30.45911 30.948412 30.581434 30.581434 30.092133
30.45911 31.070738 30.826086 30.581434 30.70376 30.336784 30.45911 30.70376
00000000: 7a7a 787f 7878 7a7b 777a 7b7a 7f7a 7978
00000010: 7b7a 7878 7d78 7b7c 7971 7979 797b 787b
00000020: 797d 7676 7d74 787f 7979 797c 7579 7a7a
00000030: 787b 7c79 7d7a 7a76 797e 7c7a 7b78 797b

tfl.pseudo_qconst11 i1 [64, 3, 3, 32]
19 -68 -8 -95 -92 -17 -95 -10
96 14 -83 20 -52 84 61 87
106 -111 -4 -4 -43 -83 39 78
92 -12 -8 15 84 -61 94 -43
6 -86 -78 94 -41 -111 -29 27
-67 0 -36 -47 29 -46 97 -39
-13 -20 -70 -12 -53 92 76 -1
-26 90 99 41 -95 76 24 35
-80 14 -8 65 -105 98 -85 20
-45 33 87 19 111 70 62 -39
-54 -46 69 26 -112 31 -42 98
-11 -120 -21 -77 -11 62 -10 -111
-42 -20 47 69 -111 78 -22 91
-26 -92 84 -43 50 -98 -61 -21
6 -49 89 95 53 20 26 -92
46 106 -99 30 28 -114 -99 -50
-63 109 -49 -8 -45 -58 97 40
-5 -17 9 85 -115 73 -62 -47
18 99 -2 -55 -83 -85 -47 -89
-121 10 44 94 84 -47 -100 -118
80 29 39 99 28 15 0 -90
18 109 80 -51 -91 44 15 -8
42 86 -101 -54 110 7 -28 20
64 62 104 -78 -74 73 -99 -55
54 -73 -48 94 87 127 5 -91
77 3 55 77 56 -87 -95 26
64 -94 101 68 70 -80 -16 18
95 -25 -14 6 22 99 -119 58
57 -44 25 13 -81 -35 91 82
106 -70 93 -4 114 24 -23 -31
30 69 -55 28 -93 18 -4 -69
46 -15 -34 -12 -92 16 -119 48
00000000: 13bc f8a1 a4ef a1f6 600e ad14 cc54 3d57
00000010: 6a91 fcfc d5ad 274e 5cf4 f80f 54c3 5ed5
00000020: 06aa b25e d791 e31b bd00 dcd1 1dd2 61d9
00000030: f3ec baf4 cb5c 4cff e65a 6329 a14c 1823
00000040: b00e f841 9762 ab14 d321 5713 6f46 3ed9
00000050: cad2 451a 901f d662 f588 ebb3 f53e f691
00000060: d6ec 2f45 914e ea5b e6a4 54d5 329e c3eb
00000070: 06cf 595f 3514 1aa4 2e6a 9d1e 1c8e 9dce
00000080: c16d cff8 d3c6 6128 fbef 0955 8d49 c2d1
00000090: 1263 fec9 adab d1a7 870a 2c5e 54d1 9c8a
000000a0: 501d 2763 1c0f 00a6 126d 50cd a52c 0ff8
000000b0: 2a56 9bca 6e07 e414 403e 68b2 b649 9dc9
000000c0: 36b7 d05e 577f 05a5 4d03 374d 38a9 a11a
000000d0: 40a2 6544 46b0 f012 5fe7 f206 1663 893a
000000e0: 39d4 190d afdd 5b52 6aba 5dfc 7218 e9e1
000000f0: 1e45 c91c a312 fcbb 2ef1 def4 a410 8930

tfl.pseudo_qconst12 i1 [32] scale=0.00048334216 zero_point=120
-0.11986885 -0.11261872 -0.05558435 -0.00676679 0.0009666843 -0.057517715 -0.10536859 -0.04688419
-0.083618194 -0.023200423 -0.00048334216 -0.0014500264 -0.05655103 -0.0024167108 0.003383395 -0.10343522
-0.01111687 -0.046400845 -0.0053167637 -0.09473506 0.0014500264 -0.003383395 -0.07443469 -0.11600212
-0.020783713 -0.045917504 -0.0019333686 -0.03335061 0.0 -0.018367002 -0.0077334745 -0.00676679
00000000: 808f 056a 7a01 9e17 cb48 7775 0373 7fa2
00000010: 6118 6db4 7b71 de88 4d19 7433 7852 686a

tfl.pseudo_qconst13 i1 [32] scale=0.12339192 zero_point=-128
30.84798 30.724588 30.601196 30.97137 30.601196 31.218155 30.84798 30.97137
30.724588 31.218155 30.724588 30.601196 31.094763 30.84798 30.724588 30.601196
30.84798 30.84798 30.724588 30.84798 30.601196 30.724588 30.724588 30.97137
31.341547 31.46494 30.601196 30.84798 30.84798 31.218155 30.84798 30.97137
00000000: 7a79 787b 787d 7a7b 797d 7978 7c7a 7978
00000010: 7a7a 797a 7879 797b 7e7f 787a 7a7d 7a7b

tfl.pseudo_qconst15 i1 [32, 3, 3, 3]
-68 52 22 -123 23 56 -26 35
25 66 -61 76 4 -111 71 63
-68 -50 78 -40 33 93 -65 127
119 120 -14 56 -2 -29 -28 43
-93 24 -48 113 68 -102 -127 18
97 -32 -27 86 114 124 -46 -61
26 44 -41 106 87 2 127 -44
-3 90 -53 37 16 -4 75 -19
108 30 17 -59 -120 -113 97 102
-65 -78 103 -11 91 5 56 103
-97 28 -43 -11 112 -83 -37 -8
124 95 -78 66 127 23 48 120
109 -43 -115 66 -92 -87 -117 -84
-65 -58 48 -103 93 -74 -126 -23
-69 -58 -54 2 104 19 -60 52
-41 -127 -111 39 110 37 46 -7
26 -109 -26 -72 12 38 -93 -105
1 -99 57 93 -78 -88 109 8
-115 39 -123 71 -112 -124 -127 -29
85 113 70 61 106 -19 56 60
102 -65 -55 -25 -79 104 44 -107
57 113 15 -127 62 23 84 18
-83 56 22 -31 96 56 -101 93
114 -123 -16 85 108 59 -127 94
37 -39 -86 9 49 29 24 37
76 -42 -93 43 77 16 69 -95
-88 -22 51 -110 85 -46 -34 11
92 86 -35 54 -96 92 -127 -51
122 80 107 -17 19 -45 -40 110
-16 -72 -47 85 -115 37 116 110
-127 -63 78 17 -94 112 -47 111
-16 -53 -115 -109 94 -127 -118 -25
00000000: bc34 1685 1738 e623 1942 c34c 0491 473f
00000010: bcce 4ed8 215d bf7f 7778 f238 fee3 e42b
00000020: a318 d071 449a 8112 61e0 e556 727c d2c3
00000030: 1a2c d76a 5702 7fd4 fd5a cb25 10fc 4bed
00000040: 6c1e 11c5 888f 6166 bfb2 67f5 5b05 3867
00000050: 9f1c d5f5 70ad dbf8 7c5f b242 7f17 3078
00000060: 6dd5 8d42 a4a9 8bac bfc6 3099 5db6 82e9
00000070: bbc6 ca02 6813 c434 d781 9127 6e25 2ef9
00000080: 1a93 e6b8 0c26 a397 019d 395d b2a8 6d08
00000090: 8d27 8547 9084 81e3 5571 463d 6aed 383c
000000a0: 66bf c9e7 b168 2c95 3971 0f81 3e17 5412
000000b0: ad38 16e1 6038 9b5d 7285 f055 6c3b 815e
000000c0: 25d9 aa09 311d 1825 4cd6 a32b 4d10 45a1
000000d0: a8ea 3392 55d2 de0b 5c56 dd36 a05c 81cd
000000e0: 7a50 6bef 13d3 d86e f0b8 d155 8d25 746e
000000f0: 81c1 4e11 a270 d16f f0cb 8d93 5e81 8ae7
